voice_auth_model.pth (torch, 448611 bytes, 20 tensors)

conv_layers.0.weight f4 [32, 1, 3, 3]
000000 f7 2b fa bc 8e 14 18 3e 5b fc 82 3e f1 62 98 3e
       -0.030538542 0.14851591 0.25583157 0.29762986
000010 7d ab 94 3e e8 0d a8 bd 32 b9 22 be fb 66 44 3e
       0.29037085 -0.082057774 -0.15890959 0.19179909
000020 ab 49 f1 3d fd 6c 29 3e 2a 2c 38 3e 15 48 7e 3e
       0.11781629 0.16545482 0.17985597 0.24832185
000030 4d eb 0d be 6a 73 03 be d7 e3 ff bd 7e 02 91 3e
       -0.13859291 -0.12836996 -0.12494629 0.28322214
000040 0f 4d 0c 3e 07 c2 1f 3e 4d 69 6c 3e 5c d8 92 be
       0.1370127 0.1560136 0.23087044 -0.28680694
000050 50 9b 5e 3e c3 2d 8c bd e2 41 a3 3e 2e c6 de 3d
       0.21738935 -0.06844666 0.31886202 0.108776435
000060 87 06 47 3e 00 17 fb bc 63 d0 9d bd a1 bf ac 3d
       0.19436084 -0.030650616 -0.07705762 0.08434988
000070 0a ff ac bd 84 df 32 bc 8e 6a bd bd 55 54 8f 3e
       -0.08447082 -0.010917548 -0.09248839 0.27994028
000080 ca ad 30 3e 84 ff 4c be f0 35 a2 be 29 2e 37 3e
       0.17253795 -0.20019346 -0.31681776 0.17888702
000090 cf 9b ae 3d e2 52 9b be cd bd 33 3e bc 97 d0 3d
       0.08525812 -0.30336672 0.17552872 0.10185191
0000a0 4c f0 b5 be 18 69 a0 bc 05 c9 33 3c 96 ca e2 3d
       -0.35534894 -0.019581363 0.01097322 0.110737965
0000b0 de 97 39 3e 65 8c 95 3e 5f b6 e3 bd 95 0c ec bc
       0.18124339 0.29208675 -0.11118769 -0.028814593
0000c0 8b 4f 79 be f2 78 ff 3d 4a 1d 43 3e c1 00 fc 3d
       -0.2434675 0.1247424 0.19054142 0.12304831
0000d0 1a 2d 95 be 5d d5 00 bd 37 e5 32 3d d6 ae d1 3d
       -0.29135972 -0.03145348 0.043675628 0.102384254
0000e0 4a ce 5a be 65 5d 99 3d c9 72 4b 3d 09 08 84 be
       -0.21367756 0.07488517 0.049670015 -0.2578738
0000f0 a7 43 8c 3e 56 71 0a be df b7 35 bd 8f fa 28 3e
       0.27395365 -0.13519797 -0.044364806 0.1650183
000100 2e 42 19 be 9a db 92 3e a1 71 3e bd 96 cf 8d 3d
       -0.14966652 0.28683168 -0.046495084 0.069243595
000110 69 19 62 3e d3 7f 9a 3e b2 7e 65 3e 4c e3 8b bd
       0.22080006 0.30175647 0.22411612 -0.06830463
000120 c0 ca f8 bc 8c 93 97 be 90 69 1d be a2 84 9e 3e
       -0.030370116 -0.29604757 -0.153723 0.30960566
000130 85 d7 99 be 82 6f 8b be 2a 6f 0d be 90 24 cb 3d
       -0.3004724 -0.2723351 -0.13811937 0.09919083
000140 f9 ac 8a 3e fd 5a 33 3d cc 50 86 3e 3c f1 c5 bd
       0.27085093 0.043787945 0.26233518 -0.096651524
000150 7f d6 39 3e c9 96 80 3e 31 ac b7 bd ba 35 5e 3e
       0.1814823 0.2511504 -0.0896839 0.21700183
000160 7e 9f 6a be a7 75 f2 bd 94 f1 ce 3d e0 bd 06 3e
       -0.22912404 -0.11838847 0.10104671 0.13158369
000170 41 41 26 3e 34 d2 8f be 5a 39 d7 3c 3f 1a f6 3c
       0.1623583 -0.2809006 0.026272465 0.030041812
000180 2d 7e 98 3e 13 a1 c2 3d d3 5f 71 3e bf ce 70 3e
       0.29783764 0.09503379 0.2357171 0.23516367
000190 6f 2e 73 3e 01 fb 67 3e 94 92 50 3e be 62 3a 3c
       0.23748182 0.22654344 0.20368415 0.011376081
0001a0 b7 d1 68 3e 60 9b 36 3e 31 6f 5f 3e 44 fb af be
       0.2273625 0.17832708 0.2181976 -0.34371388
0001b0 67 d3 18 bd c8 4f 21 bd 43 33 58 3d d0 d2 6f be
       -0.037310984 -0.039382726 0.052783262 -0.23420262
0001c0 b3 5d 77 be 2c ec 31 be c7 31 28 3d fb 50 23 3e
       -0.24156837 -0.17375249 0.041063096 0.1594886
0001d0 10 cb 0a be 90 32 83 be ac 84 8a bd 73 10 24 3e
       -0.13554025 -0.25624514 -0.067635864 0.160219
0001e0 b8 25 86 3e 15 aa 20 be 35 99 92 bd 7d a0 2b 3e
       0.26200652 -0.15689881 -0.07158128 0.1676044
0001f0 21 86 8f 3e b0 87 20 bd e3 d0 4e bd d3 48 25 3e
       0.2803202 -0.0391919 -0.05049218 0.16141061
000200 52 99 7e 3e 79 ef 56 be e5 19 d2 3d 7c 6e f4 bd
       0.24863175 -0.20989789 0.10258845 -0.11935136
000210 1b 35 9e 3e 33 39 0c 3e 1f 86 47 3d a0 02 b8 3d
       0.3089989 0.13693695 0.048711892 0.08984876
000220 af f3 5b 3e 67 4c 30 bd 29 22 83 3e 84 4f 1d be
       0.21479677 -0.043041613 0.25612 -0.15362364
000230 b5 9f 92 3e 4b c1 e6 bd a3 0c d4 bd 43 50 8f 3d
       0.28637472 -0.112673365 -0.10353973 0.069977306
000240 96 19 15 bd 0e 83 71 be 1d 02 06 be c4 bd 95 3e
       -0.036401354 -0.2358515 -0.13086744 0.29246342
000250 6e 46 a0 be 5c 8e 1f be bd 77 0a 3e 9b f0 2f be
       -0.31303734 -0.1558165 0.13522239 -0.17181627
000260 9b 5b 88 3d 10 f5 35 3e 77 96 17 3e a6 77 c0 3d
       0.06658097 0.17769265 0.14803492 0.09397821
000270 e4 a4 9e 3d 51 08 99 3e 40 db d3 3c 0c 90 0c bd
       0.07746294 0.29889157 0.025861382 -0.03431706
000280 52 b7 44 3e 5d c7 4f 3e b8 9e 1e be c7 17 92 be
       0.19210556 0.20290895 -0.15490234 -0.28533766
000290 f6 d7 9b 3d 91 d8 7a be 31 80 74 3d a2 29 19 be
       0.07609551 -0.24496676 0.059692565 -0.14957288
0002a0 37 c4 b3 be ea 1d bb 3d 95 d8 8a be a7 eb 9e be
       -0.35110638 0.09136565 -0.27118364 -0.31039163
0002b0 32 ad cf bc e6 a7 f4 3c f2 6d ac be d0 a4 71 be
       -0.02535114 0.029865216 -0.33677632 -0.23598027
0002c0 3c da 6f 3e c1 e2 66 3d 1c 86 33 be 08 87 89 3e
       0.23423094 0.056368593 -0.17531627 0.26860833
0002d0 1e 33 93 be 38 c5 33 be b9 ca f3 bd 7e 2a 5a be
       -0.28749937 -0.17555702 -0.11903901 -0.21305272
0002e0 19 18 32 3e 12 e8 9d 3e d2 48 ae 3d 92 55 7d be
       0.17392005 0.30841118 0.08509983 -0.24739674
0002f0 30 36 5d bd f7 7a 84 3e b1 61 6f be e9 e9 81 3b
       -0.054006755 0.25875065 -0.2337711 0.003964652
000300 50 67 9c bc 14 c6 a5 3d d7 36 5b 3e 94 ea c5 3d
       -0.019092232 0.08094421 0.21407638 0.09663883
000310 d7 48 29 3e ff 4a 41 bd eb 77 bf bd d5 6e 32 3e
       0.16531692 -0.047190662 -0.093490444 0.17425092
000320 95 c0 8e be 23 43 98 3d 88 e8 e8 bd 02 32 a5 be
       -0.27881303 0.0743468 -0.11372477 -0.32264715
000330 b8 53 8c 3e e3 07 7c bc 7d 43 94 3e 92 0e 05 3e
       0.27407622 -0.01538274 0.2895774 0.1299384
000340 0d 02 37 be 2e 6e 7f 3e 18 45 0a 3e b5 b4 61 3d
       -0.17871876 0.24944374 0.1350292 0.055103976
000350 d6 c4 10 be 40 8a 2f be 13 77 78 3e 87 84 a0 be
       -0.14137587 -0.17142582 0.24264173 -0.3135111
000360 b0 f2 38 3e 08 71 d4 bd 84 56 85 3e 5b b6 67 be
       0.18061328 -0.103731215 0.2604257 -0.22628157
000370 4d 06 1f bd a7 4a 64 be 81 51 7d 3c 01 40 ea 3b
       -0.03882437 -0.22294103 0.015461327 0.007148743
000380 58 48 c2 3c 46 49 66 3e e3 1a 88 bc 06 db 87 3e
       0.023716137 0.22488889 -0.016614383 0.2653429
000390 4a d5 31 be f9 e3 c6 bd 9e f1 c8 bd 69 60 6b bc
       -0.1736652 -0.09711451 -0.0981171 -0.014366248
0003a0 d3 3b 3f bd 8b 41 95 be 37 71 9a 3e e7 90 68 3e
       -0.046687912 -0.29151568 0.301645 0.22711526
0003b0 e5 d4 fd bd 09 1a b0 be e2 65 dc 3d ce f0 b2 bd
       -0.12394122 -0.34394863 0.1076162 -0.08737336
0003c0 81 c4 81 be 9a bc 28 3e e7 6d 0d bd c7 79 9c be
       -0.25345233 0.16478196 -0.03452864 -0.3056166
0003d0 83 e3 9e 3e b5 36 e9 3d 24 dc 3c 3e ed cd a3 be
       0.31032953 0.11387388 0.18443352 -0.31993046
0003e0 2a ba 88 be 5c 32 8a 3e 47 50 00 3e 30 60 32 3e
       -0.26704532 0.26991546 0.12530623 0.17419505
0003f0 49 16 55 3e 55 c5 f5 3d 91 02 11 be 47 41 92 3e
       0.20809282 0.12000529 -0.14161135 0.28565428

conv_layers.0.bias f4 [32]
000000 95 51 6c 3e 1b ea 05 be 09 ff a1 be 6f e3 a7 be
       0.23077996 -0.13077585 -0.3163989 -0.32790706
000010 7d 23 70 be 67 00 82 3e aa b7 00 be 77 9c 34 3e
       -0.23451038 0.25390932 -0.12570062 0.17637812
000020 c6 b1 97 be 92 4f af 3e 37 ea a6 3c 79 e1 8c be
       -0.29627818 0.34240395 0.020375354 -0.27515772
000030 b6 d7 01 be 74 c9 19 bd 09 c9 85 bd f1 ac 93 be
       -0.12679943 -0.037545636 -0.06532485 -0.2884288
000040 6b 0e 6b be c3 6c cf bc e6 46 ca 3d 62 b0 d2 3d
       -0.22954719 -0.025320416 0.09876804 0.102875486
000050 87 1f 38 be 1f df 2a be e3 bc 15 be e9 2d 89 be
       -0.17980777 -0.16686676 -0.14622836 -0.2679284
000060 8e 9a ed bd 46 17 0a be d6 ca 76 bd 3b 2e 02 be
       -0.116017446 -0.1348544 -0.060252033 -0.12712948
000070 af 13 a1 3d 40 b0 01 bd 6d 58 52 3e 10 86 4d 3e
       0.078650825 -0.031662226 0.20541544 0.20070672

conv_layers.1.weight f4 [32]
000000 30 c1 7b 3f d9 d5 80 3f 73 33 7d 3f 28 d9 80 3f
       0.98341656 1.0065261 0.9890663 1.0066271
000010 64 71 80 3f 95 a3 83 3f cd 24 7b 3f d1 f8 74 3f
       1.0034604 1.0284296 0.9810303 0.95692164
000020 33 a4 7f 3f fb c0 78 3f e1 ed 7f 3f bb 9d 7f 3f
       0.99859923 0.97169465 0.9997235 0.9985005
000030 3a a9 80 3f 84 00 7a 3f 55 fe 7e 3f 07 b0 7f 3f
       1.0051644 0.97657037 0.9960683 0.9987797
000040 d3 20 7c 3f 05 17 7f 3f 65 da 7d 3f 13 a0 7d 3f
       0.98487586 0.996445 0.9916137 0.9907238
000050 e3 b0 77 3f 9b fb 79 3f e3 47 84 3f 70 0c 87 3f
       0.9675428 0.97649544 1.0334438 1.0550671
000060 eb c1 80 3f 58 c6 80 3f 05 fe 7b 3f b9 a3 82 3f
       1.0059179 1.006053 0.9843448 1.0206214
000070 88 de 7d 3f f9 ae 7b 3f 22 c4 7d 3f 4b ee 79 3f
       0.9916768 0.9831386 0.991274 0.9762923

conv_layers.1.bias f4 [32]
000000 49 36 1d bc d6 6b c2 bb 68 6e 90 ba 6e e4 b0 3c
       -0.009595462 -0.005933265 -0.0011019232 0.021593299
000010 d0 de 71 3b 5c 9a 02 3d 44 d0 0e bd 83 da d1 bc
       0.0036906488 0.03188549 -0.034866586 -0.02561689
000020 7e 54 f9 bc 28 e5 96 bc 29 55 b0 bb 96 42 6f bc
       -0.030435797 -0.018419817 -0.0053812456 -0.014603278
000030 7a 10 ab bc 69 08 f5 bc 93 09 a8 bb 1b 39 c1 bc
       -0.02088188 -0.029911237 -0.0051280945 -0.0235868
000040 a4 dc 15 bd b3 54 a2 ba f4 2e f3 bc eb 3a 2b bd
       -0.036587372 -0.0012384861 -0.029685475 -0.041804235
000050 57 9e 1b bd 48 3f 45 bc 69 39 1a bb b6 53 91 bc
       -0.0379928 -0.012039013 -0.0023532754 -0.017740112
000060 7f f2 e7 bc cc 35 d1 bc d0 b4 98 3c 42 51 9a bb
       -0.028313873 -0.025538348 0.018640906 -0.0047093937
000070 fe 80 2b bc 61 28 a3 3b d6 f5 b0 3b 59 ea 17 bc
       -0.010467766 0.004979179 0.0054003997 -0.009272181

conv_layers.1.running_mean f4 [32]
000000 6c 69 92 c1 88 aa 5d c1 75 e4 32 c1 f1 84 01 bf
       -18.301476 -13.854134 -11.180776 -0.5059348
000010 70 97 e4 3c 80 23 3a bd 3c 99 d9 3f 8f b9 8d c1
       0.027904242 -0.04544401 1.6999888 -17.715605
000020 b7 3e 0b 41 15 01 e4 c0 64 c5 62 c1 a4 14 ac c1
       8.702811 -7.125132 -14.173191 -21.510078
000030 04 79 2e 41 e6 fe a6 c0 35 8b 34 c1 45 4c 13 c1
       10.904545 -5.2186155 -11.283986 -9.2061205
000040 23 2a 18 41 c4 53 aa c1 9c 79 b0 41 31 3a 0f 41
       9.510287 -21.290901 22.05938 8.951707
000050 1e 15 10 41 de 66 17 c1 de ae 35 bd c1 d2 8b be
       9.005156 -9.462614 -0.04435622 -0.2730923
000060 5a d9 08 40 18 2e 98 40 48 e7 51 3f 85 f9 a7 c0
       2.138266 4.7556267 0.8199353 -5.249209
000070 3c 85 fe c0 39 25 8f 3f 0c b9 ab c1 fa 2e 3b c0
       -7.953764 1.1183234 -21.465355 -2.9247422

conv_layers.1.running_var f4 [32]
000000 2c ff 61 43 41 85 f1 42 9a 96 95 42 8c e8 a2 41
       225.99677 120.76026 74.79414 20.363548
000010 5c 2b 90 41 e4 b0 d6 40 33 99 13 42 12 5a 42 43
       18.021172 6.709093 36.89961 194.35184
000020 72 d8 98 42 e6 7a 83 42 f6 7f 03 43 24 84 97 43
       76.422745 65.740036 131.49985 303.03235
000030 95 5b a2 42 48 96 be 41 61 e7 ab 42 b0 d0 62 42
       81.17887 23.82338 85.95191 56.703796
000040 cf 3f bf 42 13 fa 8e 43 00 81 94 43 2f 97 e1 42
       95.624626 285.9537 297.0078 112.79528
000050 6a 52 8d 42 4e 80 58 42 76 dc ee 41 b2 9e 16 41
       70.660965 54.125298 29.857647 9.413744
000060 52 3d 01 41 da 0f c6 41 7f 13 7c 41 0e 50 ec 41
       8.077471 24.75774 15.75476 29.53909
000070 69 55 68 42 2c 37 b0 41 b7 ec 97 43 2f 18 3e 42
       58.08341 22.02694 303.84933 47.523617

conv_layers.4.weight f4 [64, 32, 3, 3]
000000 b9 64 b0 3c 7b 98 10 3c a4 c3 7a bd 70 60 a7 39
       0.021532403 0.008825417 -0.061221734 0.00031924574
000010 eb 14 24 bc 5b 9b 19 bd f3 f3 4d bc ce cc 52 bd
       -0.010014753 -0.037501674 -0.012570369 -0.05146485
000020 5f 2f c9 bc 27 47 6e 3c fb 73 64 bd 80 97 ff 3c
       -0.024558721 0.014543331 -0.05577467 0.03120017
000030 8b 48 05 3d 2f 23 9c bc 8e de e0 3c a8 d0 49 3d
       0.032539885 -0.019059746 0.027449872 0.049271256
000040 c1 24 e2 bc 37 ee 48 3d 8d f8 32 bd b3 08 77 bd
       -0.027605416 0.049055304 -0.043694068 -0.06031103
000050 6a 09 05 bc 43 9b 45 3d ba 67 55 bd 69 37 41 bd
       -0.00811992 0.048243772 -0.052100874 -0.047171984
000060 0b 14 2e bd 83 86 ff 3c cc 76 18 3d 13 28 48 bd
       -0.042499583 0.03119207 0.03722267 -0.048866343
000070 8d 29 60 bb 5e 54 f8 3b 8a 72 15 3d 08 f7 41 bd
       -0.0034204454 0.0075784167 0.036486186 -0.047354728
000080 25 86 46 bd 82 e3 23 bd 4c 37 7a bd 54 f9 60 bc
       -0.048467774 -0.04001189 -0.06108789 -0.013731319
000090 68 89 39 bd 16 3b 0d 3d 2a 23 a3 3c 93 67 50 bd
       -0.045297056 0.034480177 0.019914228 -0.050880026
0000a0 af 98 4b 3d 66 57 50 bb 00 ad 40 3c 3f 46 1f bd
       0.049706157 -0.0031790375 0.011759996 -0.03888535
0000b0 0d a9 ab bd 2b 37 7b bd e5 10 37 3c 99 c1 48 bd
       -0.08381853 -0.06133191 0.011173462 -0.049012754
0000c0 30 ac 98 bd 63 d6 3e bd 61 80 3a 3d c0 a0 e2 3b
       -0.07454717 -0.046591174 0.045532588 0.0069161355
0000d0 71 23 4e bd ce 4b 93 3c 77 c8 45 bd ed 3c b4 3c
       -0.05032677 0.017980482 -0.04828688 0.022001708
0000e0 b4 bb 78 3d 0e 51 20 bd ca e8 21 3d b7 e9 7a bd
       0.060725883 -0.0391398 0.039528646 -0.061258044
0000f0 89 ec 53 bd 96 c1 25 3d e5 2e 25 3c 54 5a 0c 3d
       -0.05173925 0.04046782 0.010081981 0.03426583
000100 b7 85 1d 3d cb a3 2a bd 83 f2 bd 3c 06 02 c8 bc
       0.0384576 -0.04166011 0.023186928 -0.024415027
000110 6b bd 5b bd 1b 0f 2b 3d d0 b8 27 bd fe 03 8f 3c
       -0.05364744 0.041762453 -0.040947735 0.017457958
000120 56 c9 ff 3c 03 8f 40 ba 43 fa 08 3d 6f a7 96 bc
       0.031223934 -0.0007345529 0.033441793 -0.018390385
000130 1e 10 1a 3d a2 56 0d 3d c2 f0 62 bc 3b 37 05 3c
       0.037613027 0.034506448 -0.013851346 0.008130844
000140 b0 4e 1a bc 87 dd 56 bd db 36 07 3d 6b 19 85 3a
       -0.009418175 -0.05245736 0.0330113 0.001015467
000150 10 0c d8 3c 3f db 4d bb 87 da 18 3d eb df 94 ba
       0.02637294 -0.0031411198 0.03731778 -0.0011358237
000160 65 dc 0e bc 40 c4 39 3d c4 0f 16 3d 8f 8c f9 bc
       -0.008719538 0.045353174 0.03663613 -0.030462531
000170 90 cf 80 bd ff d1 49 3d 3c 46 8f 3c 05 da 24 bd
       -0.062895894 0.049272534 0.017489545 -0.040246982
000180 64 89 50 bc 47 b8 5d bd cf 4e 03 bd 41 55 e4 3c
       -0.012728069 -0.05413082 -0.03205758 0.027872683
000190 c1 bc 06 3c a7 27 73 bd b5 2b 6f 3d 62 2a 98 3c
       0.008223713 -0.059363987 0.05839129 0.018574897
0001a0 ad 86 73 3c 34 2a 13 3b 7e 09 f2 3c 8d c0 86 3c
       0.014863652 0.0022455575 0.029545542 0.016449237
0001b0 34 f1 f4 b9 6b c5 16 3d 76 8e 33 bd 62 9e a5 bd
       -0.00046719017 0.036809366 -0.043837033 -0.0808685
0001c0 89 04 98 bd 9a 25 cb 3c 0d 6a a1 bd c9 1b d2 bc
       -0.0742274 0.024798203 -0.07881556 -0.025648015
0001d0 8a 21 2f bd b5 d1 4f bd ea 0c c2 bc ab e1 56 3c
       -0.042756595 -0.0507371 -0.023687799 0.013115327
0001e0 b0 3f 37 bd ba 90 b8 ba 8d fa cd bc 1a a6 a7 3c
       -0.04473847 -0.0014081218 -0.025143886 0.020464946
0001f0 96 8b 23 bd 4b 3d a1 bc a9 16 df 3b ec 63 e5 bc
       -0.03992804 -0.019682547 0.006808121 -0.028001748
000200 9d 3c 37 3d f3 5c aa bc 42 b0 e6 bc 08 91 87 3c
       0.04473554 -0.020796275 -0.028160218 0.016548648
000210 b9 3e d8 3c 36 ea 4e 3d eb 44 38 bd 04 d3 b8 3c
       0.026397096 0.05051633 -0.0449876 0.022561558
000220 d8 99 2b 3d 2d e4 19 bd 8d b6 05 bc 1c c9 04 3a
       0.041894764 -0.03757112 -0.008161199 0.0005065368
000230 38 f7 b7 3c ef 19 3b bd ce 8e 4b 3d 57 59 93 bc
       0.02245675 -0.04567903 0.049696736 -0.017986936
000240 63 2e d5 bc 3c 63 7c 3c 6d cc b6 bc 07 a2 79 bd
       -0.026023095 0.015404519 -0.022314275 -0.060945537
000250 36 8c 4f bc 4b 0a cb bc ee ad 9e bd 31 7f 0f 3d
       -0.012667706 -0.024785182 -0.07748018 0.03503341
000260 cd 4b 3b 3c 28 20 50 bd bc 33 90 bc 1b 6f 72 bc
       0.0114316465 -0.050811917 -0.017602794 -0.014796997
000270 07 bf 6e bc 63 f5 0c 3c b3 bb ef 3b 9d 6c d2 bc
       -0.014571912 0.008603427 0.0073160767 -0.025686556
000280 e6 fc d8 bc 14 66 1f bc f1 06 81 bc 61 41 02 bd
       -0.026487779 -0.009728927 -0.01575038 -0.03180063
000290 8e 21 64 bd 1c 8c 55 bd c6 98 53 3d 8c 19 77 bd
       -0.055696063 -0.05213557 0.051659368 -0.060327098
0002a0 6c b8 c6 bc 07 a3 3d 3c cd 0a 73 3c c3 41 18 bd
       -0.024257861 0.011574513 0.014834118 -0.03717209
0002b0 12 73 4d 3d fa 29 79 bd 2b b0 bc 3c e5 c3 f4 bc
       0.050158568 -0.060831048 0.023033222 -0.029878566
0002c0 e6 ea a9 bd 1b ce 1e bd 4e 1d 40 bd c8 87 14 bc
       -0.082967564 -0.038770776 -0.046902947 -0.009065576
0002d0 1b 91 64 bd ca ab a1 bc 93 1e 4d bd f1 9b 6c bc
       -0.055802446 -0.019735236 -0.050077986 -0.014441476
0002e0 01 9d 85 3c 91 96 65 bd eb 53 2c bc 39 52 5b bd
       0.016310217 -0.056051794 -0.0105180545 -0.05354521
0002f0 1d 77 4a bb 2e 83 c4 3c 1b f3 b6 bb 3d 0a fb 3c
       -0.003089375 0.023988333 -0.0055831796 0.03064453
000300 33 c2 87 3c 52 75 55 bd 21 38 ff 3c ab 42 05 3d
       0.016572094 -0.05211384 0.031154694 0.032534283
000310 b4 dd 40 bd 91 a3 88 bc fc 0d 77 bd ae 59 6f bd
       -0.047086433 -0.016679557 -0.06031607 -0.058435135
000320 d9 0c 06 bd 51 d7 20 3d 52 19 0a 3a f9 4e d3 bc
       -0.032727096 0.03926784 0.0005268055 -0.025794493
000330 da 10 79 3c bc cc 44 bd f9 14 3d 3d c3 57 32 3b
       0.015201772 -0.048046812 0.04616258 0.0027212955
000340 dd 06 95 bc 70 df 61 3b ef 23 c1 bc da d8 96 bd
       -0.01819175 0.0034465455 -0.023576705 -0.0736558
000350 9a f2 7f bc 1c 6c 74 bc 5e 6b 81 bd 3e 0d 6d 3d
       -0.015621806 -0.014918353 -0.06319307 0.057873957
000360 77 42 5e bd a4 ab 03 bd 06 92 26 3c 8b 1d 96 bd
       -0.054262605 -0.03214611 0.010166651 -0.073298536
000370 5c df 6a bc e7 00 6b bb 70 79 23 3d c2 cf 50 bd
       -0.01433548 -0.0035858692 0.039910734 -0.050979383
000380 38 b1 fe bc a8 95 78 bd fa 14 d0 bc 79 6e 7d bd
       -0.031090364 -0.0606896 -0.025400627 -0.061872933
000390 29 dd 22 bd 8f 28 57 bc d2 a2 87 bd ff 0f 07 bd
       -0.039761696 -0.0131322285 -0.066228524 -0.03297424
0003a0 b8 f8 62 bd de 65 5b 3d 01 8b 98 bd 65 56 8e bd
       -0.055412978 0.053563945 -0.07448388 -0.06950072
0003b0 c6 65 67 bd b5 6c 82 bb f6 37 99 3b 15 7e 4d bb
       -0.056493543 -0.003980244 0.0046758605 -0.0031355668
0003c0 6d 0f 22 3d 61 87 65 3c e2 aa 06 bd b3 0c 3d 3c
       0.039565492 0.014009328 -0.03287781 0.011538672
0003d0 ae e1 80 bd d9 f9 e2 bc 62 4e 7c 3c ef 3e a8 bc
       -0.06293045 -0.027707027 0.015399547 -0.020537822
0003e0 41 0e 6f 3d 56 d9 0b bd bb 28 4a bd f4 3f 20 bd
       0.058363203 -0.034142815 -0.04935525 -0.03912349
0003f0 17 d8 80 bd 92 15 34 bd d7 0b 87 bc 27 06 58 bc
       -0.06291216 -0.043965884 -0.016485138 -0.013185061

conv_layers.4.bias f4 [64]
000000 06 bd 4e bd 14 30 15 3c e2 fa 87 bc bc e8 72 3c
       -0.050473236 0.009105701 -0.016599122 0.014825996
000010 c0 13 0b bd 8d 0d 85 3c f0 13 5e bc c6 be 87 3c
       -0.033954382 0.016241813 -0.013554558 0.01657046
000020 a7 cd 14 3d fc 39 22 bd e5 85 d2 bc 1b c5 66 bd
       0.036328938 -0.03960608 -0.025698612 -0.05634032
000030 d4 1a 00 bd 64 89 d8 bc d3 7e 02 3d 26 89 76 bb
       -0.031275585 -0.0264327 0.03185923 -0.0037618368
000040 d3 bb 9d bc 1e f1 a2 bc 84 cb 52 3c d3 2e 08 3d
       -0.0192546 -0.019890364 0.012865905 0.03324778
000050 6d 3e 2f 3c 42 db 30 bd f2 86 55 3d 1a 94 6e 3c
       0.010696036 -0.04317785 0.052130647 0.014561677
000060 ed 6a 86 3d 9b 81 09 bc b8 87 3e bd a9 a3 97 3c
       0.06563363 -0.008392717 -0.04651615 0.018510656
000070 8c 35 23 3c 88 de 38 bd 93 49 12 3d 01 37 31 bd
       0.009961497 -0.045134097 0.035714697 -0.043265346
000080 73 6a 67 3d df e7 f6 bb 98 f3 16 bc 51 ac 71 bd
       0.056498002 -0.0075349654 -0.009213351 -0.059002224
000090 43 0e 89 3a e1 1a 94 bc 36 eb 45 bd 98 2e 63 3d
       0.0010456521 -0.018079223 -0.048320018 0.055464357
0000a0 14 02 88 bc 98 f1 70 3c 40 7e 42 bd 25 24 1c 3d
       -0.016602553 0.014706038 -0.047483683 0.038120408
0000b0 f4 b7 7c bd 81 a1 f8 bc 69 cc 08 bd 4c 1e bf 39
       -0.06169887 -0.030350449 -0.033398066 0.00036452932
0000c0 ad ab da bc 8b 01 24 bb 2d ac 12 bd f6 ee b5 3c
       -0.02669319 -0.0025025334 -0.03580873 0.022208672
0000d0 bc c1 3e 3d 60 36 17 3d 8d f5 05 3c 2d 0f 6a bd
       0.04657148 0.03691709 0.00817622 -0.05714338
0000e0 9e 65 2b bd be 3b 0a bc a1 33 54 bd d7 aa 13 bd
       -0.041844957 -0.008437095 -0.05180705 -0.036051597
0000f0 03 19 34 bd aa bd 84 3b fa 3a 1e bd aa 61 a7 3d
       -0.043969166 0.00405093 -0.038630463 0.08172925

conv_layers.5.weight f4 [64]
000000 db 58 7c 3f e5 ba 7c 3f 84 bc 80 3f 1e b4 83 3f
       0.9857308 0.9872268 1.005753 1.0289342
000010 ba af 83 3f 0a e9 79 3f 85 a6 84 3f d2 d4 78 3f
       1.0288002 0.97621214 1.0363318 0.9719974
000020 86 fa 7e 3f 75 88 7e 3f c1 3a 7b 3f 45 dd 81 3f
       0.9960102 0.99426967 0.98136526 1.0145651
000030 3d 77 74 3f 9a 4e 85 3f 7d ca 85 3f e7 9d 7e 3f
       0.95494443 1.0414612 1.045242 0.9945969
000040 ec c5 72 3f 80 5b 7f 3f ce ea 7e 3f fd 9b 83 3f
       0.94833255 0.9974899 0.99577034 1.0281979
000050 87 e2 7a 3f 3f 51 7b 3f 91 0b 81 3f 82 b6 7e 3f
       0.98001903 0.98170847 1.0081655 0.99497235
000060 e2 22 83 3f 53 ba 7a 3f 44 7b 7a 3f 31 e9 82 3f
       1.024502 0.9794056 0.9784434 1.0227414
000070 62 2a 7f 3f 63 ad 79 3f 79 5c 74 3f 32 d0 82 3f
       0.99674046 0.9753019 0.954536 1.0219786
000080 83 8b 79 3f 5e 01 7b 3f 89 f9 7b 3f f9 77 80 3f
       0.97478503 0.9804896 0.98427635 1.0036613
000090 60 ad 7b 3f 87 77 7a 3f d5 9b 86 3f 63 67 7b 3f
       0.98311424 0.97838634 1.0516306 0.9820463
0000a0 6e 51 7b 3f 6c 18 78 3f ae 4b 7d 3f 0a c1 7b 3f
       0.98171127 0.96912265 0.98943603 0.9834143
0000b0 e7 70 81 3f 4f 44 83 3f fa 45 80 3f e5 e3 7d 3f
       1.011258 1.0255221 1.0021355 0.99175864
0000c0 00 17 86 3f d9 62 6f 3f 3b 2b 86 3f ab bf 75 3f
       1.0475769 0.93510205 1.0481943 0.9599559
0000d0 b9 bd 7f 3f 11 42 7a 3f ca 46 7b 3f 83 a9 75 3f
       0.9989887 0.9775706 0.9815489 0.9596178
0000e0 c6 a7 7b 3f e6 cb 7d 3f cb 3c 80 3f 55 c6 7f 3f
       0.98302877 0.9913925 1.0018553 0.99912006
0000f0 a4 56 85 3f 45 fc 7c 3f bb 92 77 3f e6 ca 80 3f
       1.0417066 0.9882243 0.9670827 1.006192

conv_layers.5.bias f4 [64]
000000 b3 da c6 bb cf e7 48 bd 39 25 91 bd 1b b8 53 bd
       -0.0060685514 -0.049049195 -0.07087178 -0.05168925
000010 70 ab 30 bd db 94 ad bc 08 7c 50 bc f3 f2 38 bd
       -0.043132246 -0.021189144 -0.012724884 -0.04515357
000020 5e cb 2a bd fc c3 73 bd 03 06 63 bd 5b ad 1e bc
       -0.041697852 -0.059513077 -0.055425655 -0.009684886
000030 f7 2a 82 bd 5e d9 09 3d a1 da 5b bd d1 99 08 bd
       -0.06355851 0.033654563 -0.053675298 -0.033349816
000040 7a f6 c1 bc 57 72 81 bd 54 80 36 bd 9b 36 93 bc
       -0.0236771 -0.06320637 -0.044555977 -0.017970374
000050 c5 cf f5 bc ac 63 fe bb 5c 8f c4 3c 9c ef 36 bd
       -0.030006299 -0.0077633467 0.02399414 -0.044662103
000060 fa e9 3b bd 06 a9 60 bd f7 7e 58 bc 16 a1 38 bd
       -0.045877434 -0.054848693 -0.0132138645 -0.0450755
000070 9c 82 3e bd f7 0c b9 bc 35 91 4c bd 57 0f 62 bc
       -0.046511278 -0.02258919 -0.049943168 -0.013797603
000080 44 e7 20 bd 87 30 1b bd 86 3a d2 3b 00 7c e3 bc
       -0.039283052 -0.037888076 0.006415668 -0.027769089
000090 dc ac d1 bc f8 4b 80 bc b5 91 2e bd a4 e0 97 bb
       -0.025595121 -0.015661225 -0.042619426 -0.0046349335
0000a0 5d f6 c1 bb ba 16 b8 bc 7c a2 0e bd ed d8 1a 3b
       -0.0059192614 -0.022471774 -0.034822926 0.0023627833
0000b0 00 9e 6b bd 9b 78 7b bd 0a 63 12 bd a5 6d 83 3c
       -0.057523727 -0.061394315 -0.035738982 0.016043494
0000c0 47 17 27 bd fc ef 76 bd ca 8b 16 bd d5 93 19 bd
       -0.040793683 -0.06028746 -0.036754407 -0.0374945
0000d0 9e 5b 4a bc 7c f3 46 bd 99 19 33 bd 7c 8f c7 bc
       -0.012350945 -0.04857205 -0.043725584 -0.02436041
0000e0 c6 2b b7 bc e4 c4 db 3b 54 b2 45 3c 5f bd 1a bd
       -0.02235974 0.006706821 0.0120664425 -0.037778255
0000f0 ec bc 5a bd ec 80 69 bd 66 30 97 bb f5 52 9e bc
       -0.053402826 -0.057007715 -0.004613924 -0.019326666

conv_layers.5.running_mean f4 [64]
000000 3c 46 f2 bf ec e4 60 3f c7 80 58 3d c7 31 25 3e
       -1.8927684 0.8784931 0.052857187 0.1613227
000010 70 5b f9 3e b8 7c 41 bf 52 2e 2c 3d 8d b3 86 bf
       0.48702574 -0.7558093 0.042036362 -1.0523545
000020 c3 84 26 bf 56 d5 0d 3f 46 1a 7f 3f 70 10 37 3f
       -0.6504633 0.5540365 0.99649465 0.71509457
000030 4e 44 c0 3f 3c a9 ab bf b5 59 e7 3e a7 4b 72 3f
       1.5020845 -1.3411021 0.4518563 0.94646686
000040 c0 ac 93 bf 37 6a 94 bd 77 fc 14 be 58 90 7c 3f
       -1.1537094 -0.072468214 -0.14549433 0.9865775
000050 27 b0 bd bd af e5 99 bf 66 2b c3 bf 58 c0 ad 3f
       -0.09262114 -1.2023219 -1.5247619 1.3574324
000060 c9 7d 6c 3f 78 af 4e 3f 9c 31 f7 bf 80 12 5e 3e
       0.9237943 0.80736494 -1.9312015 0.21686745
000070 fc 05 63 be 80 b3 65 3f 7f 30 11 bf 43 6c 5a bf
       -0.22170252 0.8972702 -0.56714624 -0.85321444
000080 eb d8 ae 3f 90 b2 90 bf c7 dc 8e bf 7a 47 89 3e
       1.3659948 -1.1304493 -1.1161126 0.26812345
000090 87 09 98 3f 57 5d 4c 3f 0b 5d 75 bd 8e cd ae bf
       1.1877908 0.79829925 -0.059903186 -1.365648
0000a0 62 d2 d9 bf 3e 34 81 3c b8 73 88 3f 4f d5 ae bf
       -1.7017329 0.015771981 1.0660315 -1.3658847
0000b0 b6 7f 67 bd ab f8 a7 3d 25 11 10 be 4b 0b a5 bf
       -0.05651828 0.082017265 -0.1406904 -1.2894071
0000c0 b1 2c 7e 3f 40 22 81 3f 92 34 9c 3b 5f af d5 3d
       0.99286944 1.0088577 0.004767009 0.1043384
0000d0 17 d9 9c 3f 4a 3d ef 3f 59 e0 87 3f 06 2f 8c be
       1.225375 1.8690579 1.061534 -0.27379626
0000e0 a1 a0 3f bf be 6f f6 bf 26 5f fa bf ea 57 8f 3f
       -0.74854475 -1.9252851 -1.9560287 1.1198704
0000f0 f4 05 73 be 1d 43 7d 3d 3b 17 8a bf c2 bc 9e be
       -0.2373274 0.061831582 -1.0788339 -0.31003386

conv_layers.5.running_var f4 [64]
000000 12 73 0d 3f a8 d1 1f 3f 66 5d dd 3e f5 b9 5b 3e
       0.5525371 0.62429285 0.4323532 0.21457656
000010 1f 6f cd 3e f9 e2 81 3f b0 38 68 3e 2b ca ed 3f
       0.4012384 1.0147392 0.22677875 1.8577322
000020 b1 ca 2a 3f e7 36 8e 3e 04 91 f6 3e 10 aa 04 3f
       0.6671553 0.27776262 0.48157513 0.51821995
000030 76 36 ea 3e 12 35 1a 3f 30 38 1a 3f 70 7d bd 3e
       0.45744675 0.6023723 0.60241985 0.37009764
000040 92 0d 05 3f 33 49 e3 3e b5 14 0b 3f 33 7d 89 3e
       0.5197383 0.44391784 0.5432847 0.26853332
000050 69 19 7b 3f 77 86 81 3f 0c a5 15 3f 6b f1 bf 3e
       0.9808565 1.011916 0.58454967 0.37488875
000060 19 fa 9d 3e a5 b5 01 3f cb 5f 83 3f bb 24 c4 3e
       0.30854872 0.5066779 1.0263609 0.38309273
000070 3a 8b 14 3f fe d0 38 3f 46 da 03 3f 9e c2 df 3e
       0.5802494 0.72193897 0.51504934 0.4370317
000080 28 2f be 3e 49 fb 91 3f f4 49 d3 3e 2d 60 78 3e
       0.37145352 1.1404811 0.4126736 0.24255438
000090 5d 34 0a 3f 65 f6 6d 3f 7a 8f a1 3e 1e f2 af 3f
       0.5398615 0.92954093 0.31554776 1.3745763
0000a0 d1 23 0f 40 d0 32 63 3f 96 09 06 3f 04 58 4e 3f
       2.236561 0.8874941 0.52358377 0.8060305
0000b0 25 2b b7 3e b7 74 aa 3e 4c d8 d2 3e fd 69 52 3f
       0.35775104 0.3329217 0.41180646 0.82192975
0000c0 e2 af df 3e d8 22 0f 3f c4 f9 a0 3e 18 70 42 3f
       0.43688875 0.5591254 0.31440556 0.7595229
0000d0 e4 cf e7 3e 00 b4 04 3f bf cb 54 3f 1c 86 fb 3e
       0.45275795 0.5183716 0.8312339 0.49125755
0000e0 e0 d3 9b 3f de b4 cc 3f 85 05 c9 3f 9b 93 bd 3e
       1.2174034 1.5992696 1.570481 0.37026677
0000f0 0e 83 fe 3e 73 54 22 3f c5 14 02 3f 61 54 58 3e
       0.49709362 0.6341011 0.5081294 0.21125938

conv_layers.8.weight f4 [128, 64, 3, 3]
000000 93 62 a6 3c f8 98 e6 bb 38 c4 58 3c 4d 02 2b 3c
       0.020310676 -0.0070372783 0.013230376 0.01043756
000010 23 e1 52 bd e7 39 54 bd a4 df d8 ba 6b cf d8 bb
       -0.05148424 -0.051813032 -0.0016546142 -0.006616523
000020 e3 18 4e 3b a6 84 a8 3a 4d de e9 3c 13 62 d3 3c
       0.003144794 0.0012856915 0.028548384 0.025803601
000030 fd 45 1f 3d 9b eb 4f 3d cd 11 0c 3d e1 41 20 3c
       0.038885105 0.0507618 0.034196664 0.009781332
000040 61 8f d4 3c 09 a4 bb bc 3a 48 d8 3c 90 2e 9a 3c
       0.025947275 -0.022905366 0.026401628 0.01882103
000050 55 c3 f6 3c d2 b4 66 bd 90 66 92 3c 34 ac e9 bc
       0.030122438 -0.056324787 0.017871171 -0.028524496
000060 0b 5e a1 3c 6e f8 ea 3c b5 51 42 3d 44 11 ce bb
       0.019698163 0.028682914 0.047441203 -0.0062886793
000070 d1 14 1c bc 5e f1 fd 3c 5b c1 3a 3d 73 c4 37 3d
       -0.009526447 0.030998882 0.045594554 0.044865083
000080 c5 77 d2 3c d4 1c 12 3d 09 f9 60 3c 24 21 89 3c
       0.025691876 0.035672024 0.01373125 0.016739435
000090 de 68 02 bd e1 fa 8c bb 20 63 49 3c 23 7b 50 3d
       -0.03183829 -0.004302368 0.0122917 0.050898682
0000a0 25 52 ad bc e4 6d 7f ba 66 f5 42 bd 49 cd 22 bc
       -0.021157334 -0.0009743853 -0.04759731 -0.009936639
0000b0 64 28 8c bc 1f ad 1b 3b a9 f0 9e 3c f6 b0 d1 bc
       -0.017109104 0.0023754311 0.019401865 -0.025597077
0000c0 dd f7 cf 3c 2c 07 14 3d b9 a6 6e 3c 40 51 20 bd
       0.025386745 0.036139652 0.014566117 -0.039139986
0000d0 8c 4d 71 3c 84 c4 89 3c 82 93 19 3b 1a da 36 3d
       0.014727961 0.016817339 0.0023433869 0.04464159
0000e0 e0 8a 0b bc 89 a8 f1 bc ca 3f 09 bd cf 0a 74 3c
       -0.008516997 -0.02949931 -0.0335081 0.014895155
0000f0 b2 19 e5 bb 3b 1d ba bb 11 73 16 3d de 76 82 3c
       -0.0069915885 -0.005679754 0.03673083 0.01592582
000100 d8 b2 a5 3b e2 98 92 3c df 43 c0 3c d4 03 de bb
       0.00505672 0.017895166 0.023469863 -0.0067753587
000110 9e 85 eb bc 48 c4 3c 3c 4b 14 48 bb 78 6b 25 bd
       -0.028750237 0.0115214065 -0.0030529674 -0.040385693
000120 f8 1c e5 bb 02 cf 8f bc fd 57 c0 bc 99 48 40 3d
       -0.0069919787 -0.017554764 -0.023479456 0.046944235
000130 57 38 eb 3c 70 0b 73 3c 55 e6 71 3c ff 9d 23 bc
       0.028713388 0.01483427 0.014764388 -0.0099864
000140 0a 65 53 bc 14 04 cf 3c 5e e1 9e 3c eb 1b 2f bd
       -0.012902508 0.0252705 0.019394573 -0.042751234
000150 56 e4 5b 3b 74 7d aa bc 9f c6 f8 bc 48 47 d3 bc
       0.0033552847 -0.020811774 -0.030368147 -0.025790825
000160 1e be 91 3c 19 a9 d1 3c 65 b1 21 bd 84 6a 9b 3c
       0.01779085 0.025593327 -0.039475817 0.018971689
000170 8f b8 4b 3b 3e 5d 0d bd ae 09 f2 3c 47 20 1c 3d
       0.0031085347 -0.03451275 0.029545631 0.03811672
000180 de 98 95 bc 14 3f f5 bc fe 97 a6 3c e9 aa 14 bc
       -0.01826137 -0.029937305 0.020336147 -0.009073951
000190 40 58 d3 bc 98 86 bc 3c cb 6b 17 3d 7b 42 58 bc
       -0.025798917 0.023013398 0.036968034 -0.013199444
0001a0 6b 3b e3 3c f9 e4 26 3d 6c 57 3b 3d ae eb 9b 3c
       0.027738294 0.04074571 0.04573767 0.01903328
0001b0 b7 c8 8f bc 54 7e 5a 3c 0a c3 8d bc e1 9a fe bc
       -0.017551763 0.013335783 -0.017304916 -0.031079711
0001c0 31 ce 84 3c 0b 9b 61 bc a5 c2 2b bc 82 2b 36 bd
       0.016211601 -0.013769875 -0.010483419 -0.044475086
0001d0 c0 08 74 3b 6d ca c1 bb 7e c5 25 3d dd 7c 19 3c
       0.003723666 -0.0059140236 0.040471546 0.009368149
0001e0 4b 00 8b bc 5a e9 bf bc 6d 20 ca 3c a3 ab 0b 3c
       -0.016967913 -0.0234267 0.024673665 0.008524808
0001f0 23 13 34 3d a2 20 08 3d b6 5d 41 bd fc 45 5a bd
       0.043963563 0.033234246 -0.04720851 -0.0532894
000200 00 22 bb bc d9 86 1c bc d1 78 76 bc 55 22 8e 3d
       -0.02284336 -0.009553635 -0.015043453 0.06940142
000210 5b d1 a4 39 ed 69 db bb dd 34 31 3d 8f 7c 79 bb
       0.000314365 -0.006695977 0.043263305 -0.0038068627
000220 33 24 1d 3c 9d b8 85 bc 30 48 67 bc 7e fb da 3c
       0.00959115 -0.016323382 -0.014116332 0.026731249
000230 51 10 32 3d 25 5b c9 3c c5 9e 15 bc b7 12 a4 bc
       0.04347259 0.024579594 -0.009132092 -0.020028455
000240 3a 26 fb bc bf 2c 99 bc b9 b9 69 bc 87 0c a3 3c
       -0.030657876 -0.018698094 -0.014265471 0.019903434
000250 80 2d c9 bc 90 8d 02 b7 b8 38 9c bc 25 47 81 3c
       -0.024557829 -7.781564e-06 -0.019070014 0.015780995
000260 05 d0 0f 3d 89 de 10 bc ef 03 4a 3c f5 cf 9d 3b
       0.035110492 -0.008842119 0.012330039 0.00481605
000270 1a 5f 91 3b ca 90 32 3d 89 58 f2 bb f2 34 6f bb
       0.004436386 0.043595113 -0.007395808 -0.0036500064
000280 a4 53 0e bd 5e e7 a7 3a 40 31 ec 3a 52 9c 40 bc
       -0.034747735 0.0012810042 0.0018020049 -0.01175602
000290 a5 25 9e 3b 11 64 02 bc 80 e1 d6 3c f9 90 20 3d
       0.004826265 -0.007958428 0.026230574 0.039200757
0002a0 f9 83 4f 3c 42 2e 54 bd 90 75 03 bc 64 35 be 3c
       0.012665742 -0.051801927 -0.008023635 0.023218818
0002b0 5d 4c 3b 3c 47 60 11 bd a1 6d 07 3d 7f 2f 54 bc
       0.011431781 -0.035492208 0.033063535 -0.012950777
0002c0 68 ce e5 3c fe d3 19 3d 0b 39 9f 3c 10 1a 01 3d
       0.028052524 0.037555687 0.01943638 0.031518996
0002d0 1c 01 ba ba 18 dc d4 3c 00 0e 1c 3a 7a 45 f8 39
       -0.0014191004 0.025983855 0.0005953014 0.0004735401
0002e0 5c 1f ce 3c a5 03 26 3b 3d 87 41 3b 44 95 d0 b9
       0.025161438 0.0025331762 0.0029530071 -0.00039784063
0002f0 bc 9b 0d bb e3 90 73 3c cb 70 87 3c a0 a4 a8 bc
       -0.0021607717 0.014866087 0.016533276 -0.020586312
000300 5b 97 31 3c f1 86 95 3c 9e e7 21 bd 5e 76 f3 39
       0.010839309 0.018252822 -0.039527528 0.00046436762
000310 54 a8 18 3d 68 d0 4e 3b ef 29 e2 3c fa 8f 0b bd
       0.037269905 0.0031557325 0.027607886 -0.034072854
000320 4b 2a 02 bd ff 8e ee 3c e1 26 87 3b bc ae e5 3b
       -0.031778615 0.02912092 0.004124508 0.0070093554
000330 e2 6a 22 bd 4e 1b 24 bd 6e 29 03 bd be 40 bf bb
       -0.039652713 -0.040065102 -0.032021932 -0.0058365753
000340 88 d4 28 bd 4a 6a 02 bc 68 33 6f 3d b9 95 e6 bc
       -0.04121831 -0.007959912 0.058398634 -0.028147565
000350 9c 01 6b bc d1 bb b7 3c e6 ff 1c bd 11 21 2a bc
       -0.014343645 0.022428425 -0.03832998 -0.01038386
000360 b0 40 ac bb b2 ec 21 bd d8 d1 a1 bc de c8 0e 3c
       -0.005256735 -0.03953237 -0.019753382 0.008714883
000370 9a d6 e8 3c 49 fb 1d 3c 9b 66 2c bd 74 f4 2e bd
       0.028422642 0.009642431 -0.04209004 -0.042713597
000380 fb 7b ce bc b0 3b 02 bd 99 52 0a bd d7 26 9c bc
       -0.025205603 -0.031795204 -0.033770178 -0.019061489
000390 43 ca 49 3c 00 0a c5 bc 59 d5 a5 ba bd f5 a4 bc
       0.012316289 -0.02405262 -0.0012652084 -0.020136708
0003a0 3d 9b 1a bc c3 02 7b 3c 40 25 12 3d 34 d3 01 bd
       -0.009436426 0.015320483 0.035680056 -0.03169556
0003b0 2d c7 15 bd 5a be 18 3d a7 35 b9 bc 94 86 75 bc
       -0.036566902 0.03729091 -0.022608591 -0.014985699
0003c0 42 06 90 ba d4 ae ee bc 5c 3f 67 3c dc 10 59 bc
       -0.0010988193 -0.029136099 0.014114227 -0.0132486485
0003d0 f3 74 3f bc 73 7f f8 bc d1 dd 65 3d 66 0c 73 3d
       -0.011685598 -0.03033421 0.056119744 0.059337996
0003e0 02 3b d4 3c 46 6d d5 bb f2 7d 1b bd b0 cb e7 bc
       0.025907043 -0.0065132705 -0.037961908 -0.028295368
0003f0 92 70 22 bd 88 78 ad 3c 24 59 12 3d e2 bd 0f 3d
       -0.039658137 0.021175638 0.035729542 0.035093196

conv_layers.8.bias f4 [128]
000000 bd 46 45 3c b8 97 1f 3d d9 37 91 bb 7f 34 fb 3c
       0.012040791 0.03896305 -0.0044317064 0.03066468
000010 1a 54 dc bc 74 95 d2 3c 47 ee 9f 3c 44 3a ad bc
       -0.026895572 0.02570603 0.0195228 -0.021145947
000020 41 ce 16 bd ae de 20 3c 34 d4 fa bb 08 2c 08 bc
       -0.036817793 0.009818716 -0.007654691 -0.008311279
000030 ed 24 a5 bc 88 05 db 3c e8 ea a6 bc 82 34 83 3c
       -0.02015921 0.026736036 -0.020375684 0.016016249
000040 1a 32 16 bd fc 26 0b bd a0 2a 11 b7 3a 7c 31 3d
       -0.036668874 -0.033972725 -8.652598e-06 0.043331362
000050 f5 48 d1 3b 2c f1 f6 bc c3 bd c1 ba 68 27 4e bd
       0.006386871 -0.030144297 -0.0014781285 -0.05033055
000060 25 a9 16 bd a3 31 09 3d 5f 21 11 3d 7a 93 18 bd
       -0.036782403 0.033494603 0.035432216 -0.03725002
000070 92 a4 98 3c 19 83 a7 bc 2a 0d a1 bc ea a3 15 3c
       0.01863316 -0.020448254 -0.019659597 0.009133318
000080 bc cb bf bc 48 3e 01 3d 22 f4 0c 3d 56 df 8d bc
       -0.023412578 0.031553537 0.03441251 -0.017318409
000090 13 34 88 bc d0 5a a8 3c 57 45 bd bc 4e a5 d4 3b
       -0.016626393 0.020551115 -0.023104353 0.0064894324
0000a0 76 c3 0d 3d 9c 17 5c bd fd 6c f2 3c 3e 56 95 bc
       0.034610234 -0.053733453 0.029592985 -0.0182296
0000b0 b6 88 05 bd a2 4f b8 bc c8 44 ab bc e4 4e 4c 3c
       -0.03260108 -0.02249891 -0.02090682 0.012469981
0000c0 6f 98 2e bd 37 56 07 3d 3b 1a a7 bb 1e 2d ef 3c
       -0.04262584 0.033041205 -0.0050995625 0.029196318
0000d0 34 10 74 3c ed ba 03 bc 9d a5 3d bd fc af d7 3c
       0.014896441 -0.008040172 -0.04630052 0.026329033
0000e0 d1 e2 6d 3c b1 bd 99 bc 2f 5a e6 bc 59 3b 66 bc
       0.014519409 -0.01876721 -0.028119175 -0.0140522355
0000f0 08 a6 18 3b 5d de 1d 3c 89 43 9b bc 1b af a2 3b
       0.0023292322 0.009635535 -0.018953102 0.004964722
000100 f9 12 1f bd f5 e2 da bc 91 c1 e2 3c 9d 0d fe 3b
       -0.038836453 -0.02671955 0.02768019 0.0077530877
000110 db 56 0c bc c8 67 75 bc aa 08 df bc 4b 86 24 3c
       -0.00856563 -0.014978357 -0.027225811 0.010041784
000120 4d 86 fe bb d4 2d 34 3c 54 91 83 bc 31 0f 03 bd
       -0.0077674747 0.010997254 -0.016060509 -0.03199691
000130 5c 83 05 3d 16 fb e3 bc 45 07 e8 bc a2 90 07 3d
       0.032595977 -0.027829688 -0.028323779 0.033096917
000140 81 f6 05 3d de 6d 0b bd 29 c3 a1 bb 34 37 83 3c
       0.032705788 -0.034040324 -0.004936595 0.016017534
000150 5d 12 c2 3a 22 f2 d4 3c 8f 9f 05 3c f3 e5 04 bd
       0.0014806498 0.025994364 0.0081557175 -0.03244586
000160 8c b4 14 3d b2 cd 05 bd aa 26 39 bc 97 7a c7 3c
       0.036304995 -0.03266687 -0.011300722 0.024350448
000170 67 d5 5c 3c bd a8 1c 3d 8c 39 ce bc 0c 8e d0 3b
       0.013478613 0.03824686 -0.025173925 0.0063645896
000180 12 70 15 bd c3 37 07 3d 79 49 33 3b 49 af 25 bc
       -0.03648383 0.033012163 0.0027357026 -0.010112592
000190 1c 7b 0d bc 66 a5 af 3c 49 d0 b2 3c e1 24 30 3c
       -0.008635309 0.021441173 0.021827834 0.01075098
0001a0 e0 26 05 bd ae 16 59 3c c4 40 ed bc 6e aa e0 b8
       -0.032507777 0.013250036 -0.028961547 -0.00010712897
0001b0 52 f4 41 3c fd 0f 1e 3d 9a e0 2e bc c2 a3 c0 3c
       0.011838036 0.038589466 -0.010673666 0.023515586
0001c0 98 cc 1b bd 00 e9 f1 bb be 24 d1 bc ac 45 12 3d
       -0.038036913 -0.007382512 -0.025530215 0.035710976
0001d0 c6 a4 1e 3d f6 8d 23 3d ac 8c 29 bb d4 32 d0 3c
       0.03873136 0.039930306 -0.00258712 0.025414862
0001e0 e1 d3 b3 3c f7 dc f9 3c 4e b3 04 3d e2 a8 0b bd
       0.021951618 0.030500872 0.03239756 -0.034096606
0001f0 da 1d ab 3b d4 e7 56 3c 44 bf 23 bc b2 32 c8 3c
       0.0052220644 0.013116796 -0.009994332 0.024438236

conv_layers.9.weight f4 [128]
000000 03 d4 7c 3f e9 75 7d 3f 62 cd 7a 3f f7 99 7d 3f
       0.98761004 0.9900804 0.9796964 0.99063057
000010 41 d8 7c 3f 8b 38 7d 3f c1 e3 81 3f 62 81 81 3f
       0.9876748 0.989144 1.014763 1.011761
000020 ec bc 79 3f f0 09 7d 3f 9d 5c 81 3f 6f 64 81 3f
       0.97553897 0.9884329 1.0106388 1.0108775
000030 d3 fb 74 3f 2b 46 7c 3f 9b 29 7c 3f e9 a4 7d 3f
       0.95696753 0.9854457 0.98500985 0.9907976
000040 2c a1 7c 3f f1 de 82 3f fc 11 77 3f 03 ff 80 3f
       0.9868343 1.0224286 0.96511817 1.0077823
000050 f9 79 7c 3f 60 19 7a 3f 68 1f 83 3f c8 72 7b 3f
       0.98623616 0.9769497 1.024396 0.9822202
000060 c4 ce 78 3f 84 2f 80 3f e9 2e 7f 3f 1a 7c 7d 3f
       0.971905 1.0014501 0.99680954 0.9901749
000070 b3 b6 77 3f 77 9b 7d 3f 54 9e 7a 3f 4f 6e 7e 3f
       0.9676315 0.99065346 0.9789784 0.9938707
000080 3c d9 80 3f 3e 53 86 3f ee 78 7e 3f e1 39 7b 3f
       1.0066295 1.0494153 0.99403274 0.9813519
000090 14 92 7c 3f 97 e2 7a 3f a2 18 81 3f 71 e3 78 3f
       0.986604 0.98002 1.0085642 0.9722205
0000a0 25 cd 7b 3f c8 46 7e 3f 55 3b 7f 3f cc 5d 7f 3f
       0.983599 0.99326754 0.9969991 0.997525
0000b0 f8 8d 80 3f 1a 4f 7e 3f 6f a9 80 3f d2 84 7a 3f
       1.0043325 0.9933945 1.0051707 0.9785892
0000c0 cd 6b 7f 3f 20 4c 83 3f 6e 08 80 3f da 00 82 3f
       0.99773866 1.0257607 1.0002573 1.015651
0000d0 80 6d 7b 3f 5f 47 7d 3f a0 0a 7d 3f 9e 3d 7d 3f
       0.9821396 0.9893703 0.9884434 0.98922145
0000e0 81 6f 7a 3f 7a d8 7c 3f 1e 17 82 3f 3c ae 80 3f
       0.9782639 0.9876782 1.0163305 1.0053172
0000f0 fb c5 78 3f 85 3c 7a 3f b5 2b 7d 3f 48 ca 7e 3f
       0.97177094 0.97748595 0.98894817 0.99527407
000100 03 aa 80 3f 67 76 80 3f 06 f7 7e 3f 9c 65 7d 3f
       1.0051883 1.0036134 0.9959568 0.9898317
000110 f0 58 80 3f 2a 45 85 3f dd 75 82 3f 4b 9c 7f 3f
       1.0027142 1.0411732 1.0192219 0.9984786
000120 b3 4e 81 3f 79 38 80 3f b6 be 82 3f 2d a1 80 3f
       1.0102142 1.0017234 1.021445 1.0049187
000130 88 d7 80 3f cd 47 80 3f 42 b4 7e 3f 54 ca 7e 3f
       1.0065775 1.0021912 0.994938 0.9952748
000140 0a 72 7d 3f 69 aa 7e 3f 32 ef 78 3f 4a 57 84 3f
       0.99002135 0.99478775 0.97239983 1.0339139
000150 0f 96 77 3f 22 df 81 3f f1 46 80 3f 41 de 7c 3f
       0.96713346 1.014622 1.002165 0.9877663
000160 bd b4 80 3f b6 c1 7f 3f 9b 31 81 3f f7 85 7c 3f
       1.0055157 0.99904954 1.0093263 0.98641914
000170 2c 38 86 3f b4 bb 76 3f 36 17 80 3f b7 73 7a 3f
       1.0485892 0.9638016 1.0007083 0.97832817
000180 0c ca 7e 3f 7c 3c 80 3f 54 6a 80 3f dd 14 7b 3f
       0.9952705 1.0018458 1.0032449 0.9807871
000190 7f 7f 7d 3f 83 02 80 3f 90 51 76 3f 93 44 87 3f
       0.9902267 1.0000767 0.96218204 1.0567802
0001a0 c2 fb 7a 3f 2f fd 7b 3f 79 f3 81 3f 8e 36 80 3f
       0.980404 0.984332 1.0152427 1.0016649
0001b0 24 47 79 3f 4c 39 7d 3f 11 27 83 3f 05 4a 80 3f
       0.97374177 0.98915553 1.0246297 1.0022589
0001c0 c3 92 7e 3f e0 60 80 3f 2b cd 80 3f fb 14 7e 3f
       0.9944269 1.0029564 1.0062612 0.99250764
0001d0 59 02 79 3f 83 63 86 3f 1a 77 81 3f 6c da 7c 3f
       0.9726921 1.0499119 1.0114472 0.98770785
0001e0 4b 32 7d 3f ed 25 80 3f 26 77 7b 3f 7b 00 7d 3f
       0.98904866 1.0011574 0.9822868 0.9882886
0001f0 12 b6 79 3f f2 c3 83 3f a7 31 78 3f 35 48 7b 3f
       0.9754344 1.0294173 0.96950763 0.98157054

conv_layers.9.bias f4 [128]
000000 24 b3 59 bc de ff e5 bc 2b be 4e bd 62 e1 14 bb
       -0.013287339 -0.028076109 -0.050474327 -0.0022717346
000010 f2 20 21 bd 18 99 ee bc d7 81 aa bc bb bf b9 bc
       -0.03933806 -0.029125735 -0.020813866 -0.022674432
000020 c8 ab 03 bd 81 75 e7 bc d6 85 7a bd cd cf f9 bc
       -0.032146245 -0.028254272 -0.061162792 -0.030494595
000030 b4 57 17 bd c6 85 3b bd 1e 4a 40 bc 6d c4 ca bc
       -0.036948875 -0.045781873 -0.011736421 -0.024751866
000040 81 30 dc bc cc fe e9 3b 5f fa 19 bd 22 32 f2 bc
       -0.026878597 0.00714097 -0.037592288 -0.02956492
000050 3d 94 54 bd 71 3b 75 bc fc f8 7a 3c 8c 3f 27 bd
       -0.051899184 -0.014967785 0.015318152 -0.040832087
000060 dd 96 dc bc 6a 25 91 bc 1f a9 c6 bc f8 b6 73 bc
       -0.026927406 -0.017718036 -0.024250565 -0.014875166
000070 b0 68 cb bc 9c f6 b1 bc 7c 25 d0 bc a2 81 da bb
       -0.024830192 -0.021724038 -0.025408499 -0.0066682855
000080 df bc 54 bd 11 9a 1c 3d e4 ee 58 bc 0c 7b 86 bc
       -0.051937934 0.038232867 -0.01324055 -0.016416095
000090 07 78 d4 bc 5f 74 ea bc b8 43 47 bd 5e d4 41 bd
       -0.02593614 -0.028619943 -0.048648566 -0.04732167
0000a0 79 89 24 bc 82 1f 93 bc 4e f7 18 bb d4 1f d1 bb
       -0.010042542 -0.01795936 -0.0023340764 -0.006381968
0000b0 40 55 86 bc c2 e0 11 bc 0e 64 85 bc b7 2f a2 bc
       -0.016398072 -0.008903684 -0.016283061 -0.019798143
0000c0 87 19 ef bc 2c 40 9a 3c 33 61 16 bc ce d7 a3 bb
       -0.029186977 0.018829428 -0.009178448 -0.005000091
0000d0 19 8d e6 bc 8e be e9 bc 97 c2 e5 bb 7c 0b 48 bb
       -0.028143452 -0.028533246 -0.0070117223 -0.0030524423
0000e0 bd 39 89 bc d8 49 51 bc b5 ff b5 bc a0 de 47 bd
       -0.016751165 -0.012773953 -0.022216657 -0.048796296
0000f0 a5 8f f2 bc 0e b1 3b bc 07 2a bf 3b 27 29 af bb
       -0.02960951 -0.011455787 0.0058338675 -0.005345482
000100 0c 1b 0c bd df 5f 45 bd 23 bc 1b bd a1 8d a0 bb
       -0.03420548 -0.048187133 -0.038021218 -0.004899696
000110 89 7b 3b bd b1 6f bb bc 72 d3 df bc 3c 77 4d 38
       -0.04577211 -0.022880407 -0.027322505 4.8986854e-05
000120 5a 89 fb bb d1 2f 00 bd eb 3e 89 bc 82 7e 4a bc
       -0.0076762857 -0.0312956 -0.016753634 -0.012359263
000130 93 a0 a2 bb 88 48 9e bc fd 86 12 3c 08 18 00 bd
       -0.0049629896 -0.019321695 0.0089433165 -0.031272918
000140 c9 14 af bc f7 5e bc bb af 53 9f bc c3 8a a9 3c
       -0.021372216 -0.0057486254 -0.019449083 0.02069605
000150 d4 54 e8 bc 7b 2b 80 bc 10 4f ee bc 47 f0 f2 bc
       -0.028360762 -0.015645733 -0.029090434 -0.029655589
000160 3b 89 4a bd e0 ad 3c bd 8f f2 86 bb aa 13 af bc
       -0.04944728 -0.046064258 -0.0041182707 -0.021371681
000170 d2 d9 9a bc f6 30 32 bd 79 4a b3 bc 6b 28 12 bd
       -0.018902693 -0.043503724 -0.021886097 -0.035683077
000180 a3 a1 c4 bc 33 65 48 bd 3f 44 e3 bc 05 d6 9b bb
       -0.024002856 -0.048924636 -0.027742503 -0.0047557377
000190 04 32 99 3b e3 11 0a bd 07 af a2 bc bd 02 1a 3d
       0.004675152 -0.033708464 -0.01985885 0.037600268
0001a0 9d 06 35 bc a2 e6 ca bc 9b 23 80 bd 2a ff f4 bc
       -0.01104894 -0.024768177 -0.06256791 -0.029906828
0001b0 03 d8 bf bc 86 59 ea bc ae 6f b2 3b 8b fd 60 bc
       -0.023418432 -0.028607141 0.005445442 -0.013732324
0001c0 ef 43 e8 bc ef 3e 6f bd 26 ca 8d ba c1 59 58 bd
       -0.028352706 -0.058409628 -0.0010817691 -0.05281997
0001d0 76 17 b6 bc 7b 10 20 3d f2 2c 35 3b ab f0 3e bc
       -0.022227984 0.039078217 0.0027645198 -0.011654059
0001e0 6e 31 43 3b 44 53 b8 bc 03 5f 1a bc a8 69 1c bd
       0.00297841 -0.022500642 -0.009422067 -0.0381867
0001f0 2e f3 ce bc 06 24 8f 3c fd a6 29 bd 2f ce 51 bc
       -0.025262441 0.017473232 -0.041419018 -0.012805506

conv_layers.9.running_mean f4 [128]
000000 89 a4 21 3f d6 2c 1b c0 85 b2 66 3f ef bc dd bf
       0.63141686 -2.4246116 0.9011615 -1.7323283
000010 9f 20 bd 3f d6 e9 04 3f 5b 16 ac be 31 f5 0c 3f
       1.477558 0.51919305 -0.33610806 0.5506163
000020 6f 31 00 3e 8b 21 a9 bf 3d ba 84 3f 68 9a 38 3f
       0.12518857 -1.3213362 1.0369335 0.72110605
000030 9c 0f f8 bf 23 68 38 3f bd 33 21 bf da 01 c4 3e
       -1.9379764 0.720339 -0.6296957 0.38282663
000040 b6 30 c2 3e e4 b2 8f 3f 6c 46 de 3d 6c 47 cf 3e
       0.37927788 1.1226468 0.10853276 0.40484178
000050 a6 0b 8a 3f f7 fc 88 bf c5 3b fc 3f 8c 4b 70 3e
       1.0784805 -1.0702199 1.970574 0.23466319
000060 1a 33 8a bf 5d ad 92 3e f3 60 ba be e5 67 80 3e
       -1.0796845 0.2864789 -0.3640209 0.25079265
000070 b6 ba cc bf 82 14 d8 3e 9e 87 ec bf 4b d3 c7 bf
       -1.599448 0.42203146 -1.8478887 -1.5611356
000080 70 2b 94 3f 56 35 bb 3f ba 6c 6c bf b0 c4 88 bf
       1.1575756 1.4625652 -0.92353404 -1.0685024
000090 a7 64 1f bf 6e 5c bb 3e 85 9f 5d 3f 95 bc dd 3e
       -0.6226296 0.36593956 0.8657153 0.4330794
0000a0 6b de b2 bf 46 aa 9b bf e0 b1 aa bf 79 14 b8 bf
       -1.3974127 -1.2161338 -1.3335533 -1.4381248
0000b0 c7 6b dc 3e 92 91 40 bf 11 24 e6 3e 0b 11 cf bf
       0.43050978 -0.7522212 0.4494939 -1.6177076
0000c0 e2 2c 6b 3f 4e 24 34 3f a1 17 92 3f b1 60 2d 3f
       0.9186536 0.70367897 1.1413461 0.67725664
0000d0 f1 8b bf be e8 e9 54 3f f1 66 1b bf 4e 82 ad bf
       -0.37411454 0.8316941 -0.6070395 -1.3555391
0000e0 b7 50 e8 bf 86 e9 f9 bf 10 62 8f ba 94 43 ac 3f
       -1.8149632 -1.9524391 -0.0010939259 1.3458123
0000f0 60 70 50 3e f2 b0 5f bf 15 2f 9e 3f 83 5d a0 be
       0.20355368 -0.8737937 1.2358118 -0.31321344
000100 c6 f3 04 3f 75 83 3d 3f b0 ea b4 3f 53 fc 2c 3d
       0.5193447 0.7402871 1.4134121 0.042232823
000110 00 58 aa 3f 3e d3 a1 be 3a 32 42 3f 30 e2 0a c0
       1.3308105 -0.31606477 0.7585789 -2.1700554
000120 6f 6b 07 bf ee 01 23 be 12 d1 31 3f 84 b3 c8 3d
       -0.52898306 -0.15918705 0.6945964 0.09799865
000130 2e 3b 5b 3f 65 d1 ee bf 28 c0 ae 3f a6 1b fc 3e
       0.85637176 -1.8657652 1.3652391 0.49239844
000140 9c b1 4a 3d 47 c9 8a bf c5 2a c6 bf 62 08 99 be
       0.049485788 -1.0842675 -1.5481802 -0.29889208
000150 67 62 b9 bf 11 9a 51 3f 32 65 1b 3f aa 0c 55 bf
       -1.4483155 0.8187571 0.60701287 -0.8322245
000160 2a 6b 8e 3f 2e 52 1e 3f de db 18 3f 0c d7 29 3f
       1.1126454 0.61844146 0.5971049 0.6634376
000170 d8 cc 64 be ec c1 5e 3f eb 33 ca bf 22 a5 8d be
       -0.22343767 0.8701465 -1.5797094 -0.2766505
000180 7b 61 af be 84 e7 fe 3e 42 31 99 3f 18 db 15 3f
       -0.3425406 0.49786007 1.1968157 0.58537436
000190 ee 67 bc bf fd 0e 79 bc 0f 36 3c 3f a7 c6 b8 3f
       -1.4719217 -0.015201327 0.73519987 1.4435624
0001a0 64 72 ac bc 0c 50 61 be 88 e3 81 3f 82 a6 a4 bf
       -0.02105064 -0.22003192 1.0147562 -1.2863314
0001b0 21 2a 9e bf 56 a3 ba be 32 a1 85 3f 95 e9 0b 3e
       -1.2356607 -0.3645274 1.0439818 0.13663323
0001c0 66 28 ac 3e 76 ea 99 3e 7c 6b fb bf 2b 8e 7d 3f
       0.33624572 0.30061692 -1.9642177 0.99045056
0001d0 1b 69 6d bf d2 09 75 3f 32 98 a6 3f 63 d1 a6 bf
       -0.92738503 0.9571811 1.3015196 -1.303265
0001e0 04 7f 3f bf 74 57 ed bd 5a 87 c1 3e 8c b6 b8 bc
       -0.74803185 -0.11588946 0.37798578 -0.022547983
0001f0 14 6f 3f bf b5 86 c0 3f f1 22 6d 3f 4e c1 52 bf
       -0.74778867 1.5041109 0.9263144 -0.8232621
